shakespeare_loss_0.0461.pth (torch, 358824 bytes, 6 tensors)

rnn.weight_ih_l0 f4 [512, 35]
00000000: e28f 05be 32af 57bd d843 b43f 6c3a 543f
00000010: 2d6b d5be 12ec 89bf 5dd9 9d3f c75d e5bf
00000020: 4266 643e 2ca4 ef3e c43d b4bf 1427 333f
00000030: 138c 95bf ae30 b53f 1d87 8dbe 43fc d43d
00000040: e178 b43e 2ab7 47bf 870f e7bf 7671 c7bf
00000050: ce66 d8bf 59df be3f 784b f73f cfd3 23bf
00000060: cd0a a0bf 9423 23bf 860e b2be e953 79bf
00000070: c9b3 e2bc 645c 87bf b8db 6d3f 3e7a 03bf
00000080: 46d2 b9be 8285 ed3f 33fb 1a3f 0c39 6cc0
00000090: 9a5e 853f 5fa6 8e3f fbc7 55bf b540 15c0
000000a0: e063 94bf 4ac2 42c0 0ffa 5dc0 0097 12c0
000000b0: a71c 45bf 9b54 e83f 9ca6 223f 837a 723f
000000c0: 5748 bebf adca 8d3c 5729 8440 376d 9940
000000d0: d9f5 873e dd56 3240 7210 29bf 78b6 b140
000000e0: ec5d 7e40 fca0 e83f afc9 983f db72 adbf
000000f0: 515e 433e 24ce 9e40 0e1c 13be 1725 6cc0
00000100: 47dc 5e40 a4af a4bf c89a c3bf 21df 7f3f
00000110: 4d16 1240 e8fc 4540 81ec 6fbf a17a 8c3e
00000120: 9e71 33be c61b 19be 16f8 35bd eb77 13bf
00000130: 85e0 0a3f 9ed5 a8bd e7a2 9dbe da61 1ebf
00000140: f035 d03e ceb6 59bd 2242 0abf 00f2 113f
00000150: 5564 1540 6848 253f 7596 c63d fd08 39bd
00000160: 5d2f 233e 4979 d1be e530 863e 9313 743f
00000170: 0b5b bdbe 1dc4 a43f 6c75 9a3e abe8 2bbf
00000180: 4484 6abf fab6 1fbf a77d 4f3f 1d8a 1cbf
00000190: 8e88 70bf 3fb9 d5bd 2598 c4bd 69fa 1bbf
000001a0: 1da5 bebf 9aca 95bd cf05 a43f 1560 433e
000001b0: c1bb 3d3f c84b 2d3d 8182 ce3f 5ed2 dc3e
000001c0: 5b2d 62bf ffc5 28be c7ec e83e e6a3 10be
000001d0: 32fd 99bf aa3a 14bf 3368 513f d1cb c7bd
000001e0: 56a7 e23f 5359 5cbf c5b0 253e eb7a a73f
000001f0: 05be 51be 9ba4 853f f9eb 463d cf7e e0be
00000200: 2064 f4bf 9b59 a0bd 97b4 523f d1d6 0540
00000210: 823f 10bf 2a1d 213e 73aa b0be 85b3 723f
00000220: 6a37 88be 4ddc 9b3e 4231 fcbd f9a8 09bf
00000230: edd2 a63f 7b58 ecbf fd56 08c0 6ffc 6abf
00000240: c81e c73f a357 acbe bd85 473f 52cd 6940
00000250: ee52 f13f 3055 0340 02be ce3f 4064 923f
00000260: 7f6b 4a3f 1611 abbe bb60 533f 4201 7c3f
00000270: daf7 04bf b296 5f3f 3418 b83e f345 c5bf
00000280: 6d46 c63f 9828 14c0 7957 473f 3ee0 02c0
00000290: 0106 403e 96ef 2f40 dd2d 9d3e 69ba e1bf
000002a0: 3f4f 0bc0 be9f 8b3f 9886 5bbf 90d7 a43f
000002b0: 53c8 2d3f adb7 44bf d27f 1a3f bb53 80be
000002c0: b774 1abd 0b84 69bf 7aee ba3d 051d 183f
000002d0: b2d6 b53f ab17 e1be a50f 293f ca56 00bf
000002e0: b838 a53f 2bf0 b4be 7796 3e40 1758 38bf
000002f0: 8c13 26bf f367 8b3e 535a 4c3e 41cc 983f
00000300: dadc b6bf 95f1 013f f31d 043e bd6a afbe
00000310: b2c3 db3f 6c20 d43e 9914 a83e dbe6 2d3f
00000320: 33d4 8abe ccd4 c13f 4433 75be 5215 a3bd
00000330: d0cd ae3e 1632 4ebe aaa2 2a3f 8afe cabf
00000340: 02d5 b63f 8d0e e0bf 098b 6c3e 88e1 1b3d
00000350: fc5e 9a3c bb7f 14bd 890b e63f dfd9 0640
00000360: d667 d13f 8596 113e 71cf 553e 414d e13e
00000370: e7b0 3abd 5c18 1cbf 539d b13f 126b a6bf
00000380: c683 cc3e 35cd 883e bce6 54be d243 003f
00000390: f8da d73e 61bb c53f e6a5 5dbf dd1d 75bf
000003a0: 845f 07bf 0ac8 503f 7392 723e 8f33 bbbf
000003b0: 3e8b 003f 9578 50bf 8ea7 5dbf 3c15 60bf
000003c0: 0a34 33bf ab21 223f 7b6f 2c3f d8ea 58bf
000003d0: 52f8 133e eb28 5c3e 3758 9fbe 59f5 ccbe
000003e0: 9aab 2e3f f999 c53f 462f 4d3f 9275 40bf
000003f0: 624b 32bf ec46 403f 1e6c 33bf 065f 63bf
-0.13043168 -0.052657314 1.4083204 0.82901645 -0.4168333 -1.0775168 1.2331959 -1.7919244
0.22304633 0.4680494 -1.4081349 0.69981503 -1.1683372 1.4155481 -0.27642146 0.103996776
0.35248473 -0.7801386 -1.8051614 -1.55815 -1.6906374 1.491191 1.9319906 -0.6399507
-1.2503296 -0.6372616 -0.34776706 -0.9739366 -0.027673619 -1.057507 0.9291339 -0.513584
-0.36293238 1.8556368 0.6053955 -3.6909819 1.0419495 1.1144522 -0.8350827 -2.3320744
-1.159298 -3.0431085 -3.4683874 -2.2904663 -0.76996845 1.815082 0.63535476 0.9471819
-1.4865826 0.017308557 4.1300464 4.794582 0.26554754 2.7865517 -0.6604072 5.553524
3.9744825 1.8174129 1.1936549 -1.3550676 0.19078948 4.9626637 -0.14366171 -3.6897638
3.4821947 -1.2866101 -1.528161 0.9994984 2.2826111 3.0935612 -0.9372025 0.27437308
-0.1752381 -0.14952001 -0.044426046 -0.57604855 0.5424884 -0.08243869 -0.30788347 -0.6186806
0.4066615 -0.05315285 -0.5400716 0.5700989 2.3342488 0.6456361 0.09696666 -0.045174588
0.15936036 -0.40912846 0.2620918 0.9534237 -0.36983523 1.2872349 0.3016771 -0.671519
-0.9160807 -0.62388575 0.81051105 -0.61148244 -0.93958366 -0.104357235 -0.09599332 -0.6092897
-1.4894139 -0.07314034 1.2814273 0.19079621 0.74114615 0.0423086 1.6133577 0.43129247
-0.88350457 -0.1648178 0.45493147 -0.14125022 -1.2030394 -0.57902014 0.8179962 -0.09755672
1.7707317 -0.860738 0.16180713 1.3084387 -0.20482643 1.0440859 0.048564885 -0.43846747
-1.9093056 -0.07829591 0.8230681 2.0912364 -0.56346905 0.15733781 -0.34505042 0.94805175
-0.26604778 0.30441514 -0.12314083 -0.53773457 1.303312 -1.8464502 -2.1303093 -0.91791433
1.5556269 -0.33660612 0.77938443 3.6531568 1.8853433 2.0520744 1.6151736 1.1436844
0.79070276 -0.33411473 0.82569474 0.9843942 -0.5194069 0.8733932 0.35955966 -1.5411972
1.5490242 -2.3149776 0.7786785 -2.0449367 0.1875229 2.7489982 0.30699053 -1.7635013
-2.1767118 1.0908124 -0.8575225 1.2878284 0.67883795 -0.76842767 0.6035129 -0.2506388
-0.037708964 -0.91217107 0.09127517 0.5941928 1.4206145 -0.4396337 0.66039497 -0.5013243
1.2907934 -0.35339484 2.9779336 -0.72009414 -0.64873576 0.27227744 0.19956331 1.1937333
-1.4286149 0.5075925 0.1290205 -0.34261122 1.7169096 0.41430986 0.32828215 0.6793038
-0.2711502 1.5143065 -0.23945338 -0.07963051 0.34141397 -0.20136294 0.66654456 -1.5858929
1.4283755 -1.750444 0.23099913 0.03805688 0.01884412 -0.036254626 1.797227 2.1070478
1.6359813 0.14217575 0.20879914 0.44004253 -0.045578863 -0.6097467 1.3876137 -1.3001425
0.39944285 0.2671906 -0.20791143 0.50103486 0.42159247 1.5447809 -0.86581266 -0.9574869
-0.5288012 0.81555235 0.23688678 -1.462511 0.50212467 -0.81433994 -0.86583793 -0.875324
-0.7000128 0.63332623 0.67357606 -0.84733343 0.14450195 0.21499984 -0.3112199 -0.40030935
0.68230593 1.5437614 0.8015026 -0.751794 -0.69646275 0.7510822 -0.7008685 -0.8881687

rnn.weight_hh_l0 f4 [512, 128]
00000000: cf30 11bf bbc0 503f 28d7 20bf cefa bd3e
00000010: 3040 9f3f f0db a23e f4d5 c6be d9db 4cbf
00000020: 7dc0 8f3e e2fe 7f3e c3e8 4d3f 075c 64bd
00000030: 3b5d f93e cfc6 d83e 3a53 4a3e 5fd4 723f
00000040: e9fa 11bf 9d5b 8f3e d885 2c3f 2ec3 cf3e
00000050: 2001 54bf 19a1 27bf 8ea8 2d3c 07e0 823e
00000060: 873c bcbc 6ae5 4dbf cfb2 b53e e82d 0b3f
00000070: caf3 9c3e bc78 96be bf10 793e c1ba 3a3e
00000080: e257 c7be fc23 913f 6273 c0be 1d09 253e
00000090: e683 203f ec3f 31be 4609 aebe 4af6 1abf
000000a0: 30b7 d23d 91de 073f 6806 a5bf cb4f ab3e
000000b0: d1e7 aabe f804 803f 1e11 43bd 6e45 e1bd
000000c0: f314 873e a673 a2be 2bb6 903e 90fc 5dbd
000000d0: e229 a03e 8ad4 8dbd 1551 1e3e fb35 38bf
000000e0: 6151 343f 9a3f 273f d2c0 a0bf ac1a 523e
000000f0: 692e 1f3f 4963 3d3f fa74 793e cc73 e83d
00000100: 3a61 30bd 8967 613e a337 36be cff7 20be
00000110: 2fe6 c9bc 1565 e73e d8f0 e83d 39e1 ec3e
00000120: 46ed 193e 37fe 41be f2cc 6c3f c7c4 1fbf
00000130: 64b2 7f3d 4e7c 773d 452e 47be d0f6 95be
00000140: 23d6 3d3f f784 0f3f ab4d 9a3e df23 86be
00000150: 9c6c abbe 48bc 89bf ce5d 02bf 7b9f 233f
00000160: 5c1b 113e 528b 123e 4721 1b3f 8c50 893e
00000170: a2f4 c23e 4f25 6bbf 95e1 663f d2b2 183e
00000180: 528a 243f cf73 153f a059 4b3f ddc3 e63d
00000190: e8db a2be 8c62 323e fa6d 35bf 17d9 85be
000001a0: 7be8 d2be 2fea 843f 12ee 1f3f 2655 813f
000001b0: 281c ad3e 0a14 2d3e b143 f9bc ba21 89be
000001c0: 0401 c0be a759 7ebe eb85 2fbf 4560 2a3d
000001d0: a7fb 543f 161c 343c a6b1 dbbf 49eb 95bf
000001e0: 5c34 ce3e 989e 4d3f fe18 25be 4c80 e8be
000001f0: 232d e53e 1ef6 1f3d 00c1 a33e 4544 c4be
00000200: 2b57 14c0 e9a5 cbbe 1048 19bd 735b 993e
00000210: 6d86 993e 8e66 b43e 08d5 fdbe aac5 0fbf
00000220: 5abd 6fbe 2c0f 4fbe 9e40 e7bf 3221 723f
00000230: 5602 12bd eff0 553f 8b81 373e 7617 973e
00000240: b78d c03f b9ef c83e 1840 bd3f ec80 043e
00000250: d676 06be 78c1 b5bf c896 ffbe db0f a33e
00000260: 4372 f33e d859 3cbd ddf7 c03e fcf7 443e
00000270: 93a8 753f 8275 153f bd78 033e f3e3 d93d
00000280: 8af4 51bd 66fd 22bf e007 33be cfa8 6d3e
00000290: 9ca7 47be 6d51 b6be 6660 dbbf bf1c 5ebe
000002a0: 33f8 4abe 5ad9 89be 0818 5bbd a903 2a3f
000002b0: 319e 673f 359d b6bf c922 c8be 8bd4 083f
000002c0: 640a 55bf bcee c03f 7e88 89bd 9daa 5d3e
000002d0: 2c55 0a3f b7c2 833d a064 893e af3a 1ebf
000002e0: f67b 1b3f 28ca a03d 7e6d 043f 666b c43e
000002f0: bc92 d03f c07b 40bf e184 c03e e2dd f53e
00000300: c0bf 673f abf8 ebbe 4f14 61be d520 eabe
00000310: f1a2 2b3d 28d0 c3be 71e5 8b3f 27e1 8b3e
00000320: 97cd 003f 6adc f83d 384a 0140 b78c 11bf
00000330: c5ba 263f f91d 3a3e 2472 02bf 73db 17bf
00000340: a32a 4d3e 63e9 83bd 4e90 b53e 0ea3 2dbf
00000350: 8a6d 673f 8911 4b3f ebf4 1a3f d410 92bf
00000360: d5d3 cfbd 5f12 08bf 9c0b c53c a973 713e
00000370: ba1e b73e 5d25 3cbf 49d4 5abf f1cf 823f
00000380: e617 713f 116e 2b3e d147 9d3e 4d0f 7dbe
00000390: d61e 70bf 4d25 3c3f 45db 6e3e dcb5 183f
000003a0: 3a76 f03e f885 87bf ac2e 023f 4360 6f3f
000003b0: a81e f33c f7ac a83f 483f 863f 94f3 8a3f
000003c0: ebfc 8e3d 6de2 143e 1308 413e c250 003c
000003d0: 6a47 7a3e 9194 b03d 8992 473e fe62 3abf
000003e0: 0e39 31bf c694 6cbd f4ef 943f 84de ffbe
000003f0: b764 21bf 85c8 273f 348c bcbe a282 153f
-0.567151 0.81544083 -0.628283 0.3710541 1.2441463 0.31808424 -0.38835108 -0.8002296
0.28076544 0.24999574 0.8043329 -0.055751827 0.48703942 0.4233918 0.19758311 0.948553
-0.57023484 0.27999583 0.6739173 0.40578598 -0.82814217 -0.6548019 0.010599269 0.25561544
-0.02297808 -0.80428183 0.35487983 0.5436692 0.30654746 -0.29388988 0.24322794 0.18235303
-0.38934237 1.1339107 -0.3758803 0.16116758 0.6270126 -0.1730954 -0.3399145 -0.6053206
0.102888465 0.53073984 -1.289258 0.33459315 -0.33379987 1.0001516 -0.047623746 -0.10999571
0.2638317 -0.31728858 0.28263983 -0.05419594 0.31281954 -0.06925304 0.15460618 -0.7195737
0.70436674 0.65331423 -1.2558844 0.20517987 0.6218019 0.7397962 0.2436103 0.113502115
-0.043061472 0.22012152 -0.17794661 -0.15719531 -0.024645893 0.45194307 0.11374062 0.4626558
0.15031919 -0.18944632 0.9250022 -0.62409633 0.062425986 0.06042128 -0.19451244 -0.29289865
0.7415487 0.56062263 0.3013738 -0.26199242 -0.334813 -1.0760584 -0.50924385 0.6391522
0.14170593 0.14310959 0.6059765 0.26819265 0.38077265 -0.91853803 0.9018796 0.14911965
0.6427356 0.58379835 0.7943363 0.11267827 -0.318084 0.17420405 -0.70870936 -0.2614219
-0.41192994 1.0383967 0.6247264 1.010411 0.33810544 0.16902176 -0.030427786 -0.26783544
-0.37500775 -0.24838887 -0.6856372 0.041595716 0.8319649 0.010993024 -1.7163589 -1.1712428
0.40274322 0.8032012 -0.16122815 -0.45410383 0.44761 0.039053075 0.31983185 -0.38333336
-2.3178203 -0.39775017 -0.03742224 0.29952583 0.2998537 0.35234493 -0.49576592 -0.56160986
-0.23412076 -0.20220631 -1.8066595 0.945819 -0.03564676 0.8357076 0.1792051 0.29510087
1.5043248 0.39245394 1.4785185 0.12939805 -0.1313127 -1.4199667 -0.49919724 0.31848034
0.47548112 -0.04598412 0.37689105 0.19235224 0.9596035 0.5838243 0.12839027 0.10639181
-0.0512586 -0.63667905 -0.17483473 0.23208927 -0.19497532 -0.35608998 -1.7138793 -0.21690653
-0.19821243 -0.2692364 -0.053489715 0.66411835 0.90475756 -1.4266726 -0.3908904 0.53449315
-0.8321898 1.5072856 -0.06715487 0.21647115 0.5403621 0.06433623 0.26834583 -0.61808294
0.60736024 0.07851058 0.5172957 0.38363189 1.629478 -0.7518883 0.3760138 0.48020846
0.9052696 -0.46088156 -0.21980403 -0.45728174 0.04190344 -0.38244748 1.0929395 0.27320215
0.50313705 0.12151416 2.020155 -0.5685534 0.6512874 0.18175496 -0.50955415 -0.5931923
0.20035796 -0.06440999 0.35461658 -0.67826927 0.9040152 0.7932363 0.60529965 -1.1411386
-0.10147826 -0.5315303 0.024053387 0.23579277 0.3576563 -0.7349451 -0.8548017 1.0219709
0.9417709 0.16741206 0.30718854 -0.24712868 -0.9379705 0.73494416 0.23325832 0.59652495
0.469652 -1.0587759 0.50852466 0.9350626 0.029677704 1.3177785 1.0488062 1.0855584
0.06981834 0.145395 0.18850736 0.007831754 0.24441305 0.08622087 0.19489492 -0.728073
-0.69227684 -0.05775907 1.1635728 -0.49974453 -0.63044304 0.65540344 -0.36825716 0.58402455

rnn.bias_ih_l0 f4 [512]
00000000: 891d e1be 7292 b7be 3998 a6be 0000 5a3e
00000010: 8ac7 3bbe abac 523e cb8d 90be 62a5 c5be
00000020: fecd 9abe 6f7f 97be 214c b2be 3d3c 99be
00000030: 1182 23bf 9337 1b3e 56aa c83e b217 8abe
00000040: ffb1 bbbe 8444 debe a784 75be b0c9 6fbe
00000050: eedb abbe 2aee d3bc df77 9dbd 8270 2bbe
00000060: 4b9e 83be f1ed e73e 605e c4bd 4d59 adbe
00000070: 6d37 c6be 60f9 97be c7fa 9fbe c32e 2abe
00000080: ac77 a63c e9b0 bf3e e7ab 193d 6154 6fbd
00000090: c7a3 53be 5843 0fbd d22d febe 73a8 9ebe
000000a0: f737 1ebe 649a 39be 768c 853d 2062 64be
000000b0: 7cab 783e b6b0 a5be cc89 6bbe d76a 423d
000000c0: 028c a5be 8473 8bbe 265f 29be 7aad 6dbe
000000d0: 46f0 cebe e873 35be 31bc a73d 9b31 94be
000000e0: a859 b9be 69b5 ddbd 99b7 20be 29d1 3e3f
000000f0: a3ef ee3d 378e f3be beaa 2dbe 302a 93be
00000100: 9721 ac3d d4fc 843d ea81 68be 3adf 6dbe
00000110: 8731 733e 2dd1 68be 0be2 2ebe 9912 c93d
00000120: 1efa 02bf ba02 08bf cf47 1abe ffc1 e13e
00000130: adb7 2bbd 38e6 65be 7c5a 69be 1d18 44be
00000140: 86a1 5f3e 623d 33be 1fce b33e e9c1 1dbc
00000150: 9fef e2be 664a eebd d1a1 be3c 9d88 babc
00000160: 9429 753d 99f5 b9be 29f4 22be 07a3 0ebe
00000170: 92c5 993d e846 e1bd 69d1 3b3d d0f9 afbe
00000180: d956 0abe 6612 4bbe ee5f e8be 7d4b c5be
00000190: 71f1 b1be 1c9f 54be c475 333e 8fb1 57be
000001a0: 265a 853d dcb8 c5be 1659 b9be 670f c0be
000001b0: f481 7e3d 196b 45be df5f d2be 3065 203b
000001c0: a2be ce3c c7f9 b2be 15b8 7abe c426 a7be
000001d0: aac0 31be 784e bfbe bd4f 0cbe 74e8 cdbe
000001e0: 7208 c4bd 60d8 bfbc 8f53 92be 6e31 ca3d
000001f0: 72e3 febd 4e1c e3be 3e28 29be 10d0 65be
00000200: 64d1 82be ab96 96bd ad26 14bd 4098 edbd
00000210: e34e 9fbd 758d 403d da41 ab3e 1cc8 833e
00000220: 06a0 3bbe d3e2 b53d 0aae b9be 26b6 be3e
00000230: 38c7 46bf 1536 143e b2df 2a3d f114 18bf
00000240: ce57 57bd 9b36 cdbe 92a2 94be d348 0f3e
00000250: 345c ef3d 1d37 8bbe 5532 4ebe 4bcd 6cbe
00000260: c28d 9cbe 5d2a ef3c f1a7 d53c 25ba 063e
00000270: 49a2 cf3d 4457 d13d 837e a4bc f5ad dc3a
00000280: 78c6 9f3d 091c debe 9558 6d3e 226c b8be
00000290: 2948 25be d94f 71bd 1904 04be 59a7 cd3d
000002a0: 7f32 aabe 9f36 823c 44fa 863e 8f3a 473e
000002b0: c498 e93c 4f06 dd3d 97a9 d8bd 6811 b33d
000002c0: 9346 2dbd 906e 72bd ab46 273e 9064 dd3d
000002d0: 2ad9 44be 3cca 613e f949 a4be 1897 693d
000002e0: ebf3 fb3d 6198 fe3d 913a 4bbe f219 0b3e
000002f0: 0141 153f 42be 9ebe 415a aebd 82d6 b1be
00000300: 7ef4 32be 8e99 5abe 1e48 813e c73f 363e
00000310: 4c41 673e b74f 953d 1d90 92be 4897 b1be
00000320: 0f94 2d3e aa25 8c3d 62b9 273e f2b4 4b3e
00000330: 0f12 493d 9747 20be 03a9 003d 2692 1fbe
00000340: 6cbb 64be a8fa a3bd b6f8 6d3e 0ad1 ec3e
00000350: 76e9 1dbe 2361 8d3c 3c2b 9abd 00e9 d73d
00000360: 1917 6a3e 4f50 773d 9e5a acbd 3f7a 21bf
00000370: ff84 543e 6ad5 ccbe 1b2a 2fbe 135b eb3d
00000380: b92d 7dbe 89d0 0b3e 1dcc a6bd d8b7 bfbd
00000390: 3a93 f7bd d4d6 e73d 3375 023f 4414 07bd
000003a0: 0d4f e3bd f8ba b6be b490 07be 8a14 83be
000003b0: d6d4 f73c cbe0 9d3e e901 bcbe 4852 e9bd
000003c0: 580c c8be 7fc7 f6bd 36b2 e03c b54c 5c3d
000003d0: 7f8c 833e f690 89be 8d63 b33d 90cc 09bf
000003e0: d41a 2f3e ff52 1abe 3217 9abe 88c5 223f
000003f0: da36 f03c c3fd 9ebd 4f3e 88be bdbb abbe
-0.43967846 -0.35853916 -0.32538012 0.21289062 -0.18337837 0.2057368 -0.2823318 -0.3860274
-0.30235285 -0.29589412 -0.34823707 -0.2992877 -0.6387034 0.15157919 0.39192456 -0.26971203
-0.36659238 -0.43411648 -0.23976384 -0.23416781 -0.3356623 -0.025870401 -0.07688879 -0.16742137
-0.25706705 0.45298722 -0.09588313 -0.33857194 -0.38714162 -0.29682446 -0.31246015 -0.166194
0.020320736 0.3743966 0.037517454 -0.05843008 -0.20667945 -0.034976333 -0.49644333 -0.30987892
-0.15451036 -0.18125302 0.065209314 -0.22303057 0.24284166 -0.32361382 -0.23001784 0.04746517
-0.3233338 -0.2723657 -0.16540202 -0.23210707 -0.4041769 -0.17719996 0.081901915 -0.28944096
-0.36201215 -0.10825617 -0.15695037 0.74537903 0.11666801 -0.4756944 -0.16959664 -0.28743124
0.08404844 0.06493536 -0.22705808 -0.23229685 0.23749362 -0.22736044 -0.17078416 0.09818
-0.511629 -0.5312916 -0.15066455 0.4409332 -0.041923214 -0.22451103 -0.22788423 -0.19149823
0.2183896 -0.17503884 0.35118195 -0.009628751 -0.4432344 -0.11635284 0.02327052 -0.02277022
0.059854105 -0.3632019 -0.15913452 -0.13929377 0.07508387 -0.109998524 0.045854006 -0.3437028
-0.13509692 -0.19831237 -0.4538569 -0.38534155 -0.34754518 -0.2076382 0.17525393 -0.21063827
0.06511335 -0.386176 -0.3620078 -0.3751175 0.06213565 -0.19279136 -0.4108877 0.0024474375
0.025237385 -0.3495619 -0.24484284 -0.32646763 -0.17358652 -0.37364554 -0.13702293 -0.4021641
-0.09571923 -0.023418605 -0.28579375 0.09872709 -0.124457255 -0.44357532 -0.16519257 -0.22442651
-0.25550377 -0.073529564 -0.036169697 -0.11601305 -0.07778718 0.047009904 0.33448678 0.2573861
-0.18322763 0.08881154 -0.36265594 0.37248343 -0.77647734 0.14473756 0.04171724 -0.59406954
-0.05257397 -0.40080723 -0.2903028 0.13992624 0.11687508 -0.27190486 -0.20136388 -0.23125188
-0.30576903 0.029195005 0.026081057 0.13156946 0.10138375 0.10221723 -0.020079857 0.0016836511
0.07801527 -0.43380764 0.23178323 -0.3602 -0.16140808 -0.05891404 -0.12892188 0.10041685
-0.3324165 0.015895186 0.26362813 0.19455932 0.028515227 0.10792219 -0.10579222 0.08743554
-0.042303633 -0.059187472 0.16335551 0.108101964 -0.19223467 0.22049803 -0.32087687 0.05702886
0.12302383 0.12431408 -0.1984656 0.13584116 0.58302313 -0.3100453 -0.08513308 -0.3473397
-0.17476079 -0.21347639 0.25250334 0.17797767 0.22583503 0.07290595 -0.28625575 -0.3468573
0.16951011 0.06843121 0.16379312 0.19893244 0.049089488 -0.1565231 0.031411182 -0.15583095
-0.22337121 -0.08006793 0.23239407 0.46253234 -0.1542109 0.017258232 -0.075277776 0.10542488
0.22860374 0.060379323 -0.08415721 -0.6307716 0.20753859 -0.40006572 -0.17105906 0.114919804
-0.24724473 0.13653769 -0.081444 -0.09361237 -0.12088628 0.11320272 0.5096008 -0.03297831
-0.11099062 -0.3568952 -0.13238794 -0.25601608 0.030252855 0.30835566 -0.36720207 -0.11392647
-0.39071918 -0.120497696 0.027428728 0.05378409 0.25693128 -0.2686841 0.08759222 -0.5382776
0.17100078 -0.15070723 -0.30095822 0.6358266 0.02932303 -0.07763245 -0.26610038 -0.3354167

rnn.bias_hh_l0 f4 [512]
00000000: 1180 f0be ba1e 52be 8402 8abe 456b cb3d
00000010: b784 53be cf6c 753e 6503 96be cf87 b3be
00000020: 3363 6bbe d056 b4be 9e57 bebe 4b00 6fbe
00000030: f730 13bf 6c93 903e 64af 943e 049f dabe
00000040: eada acbe ed69 c3be ba48 83be 2b4e 98be
00000050: fa6c 60be 335f 8ebb cb23 1dbe d492 82be
00000060: 68c9 94be 2dc2 e33e 4a9c 74bd 6e5c adbe
00000070: a3db b7be be16 a9be 64e3 67be 27e9 babd
00000080: 0e40 5c3d 48ec c83e cfc2 823c 2a8e 80bd
00000090: cc45 5dbe 96d2 a3bd 0f34 c1be 40c4 afbe
000000a0: 1d91 4bbe 013c 8fbe 1372 bb3d b5e2 6cbe
000000b0: dd39 063e 0e89 6bbe caa6 94be 8b1f 053e
000000c0: 414f 82be de48 5bbe c175 50bd 8151 8fbe
000000d0: 6ac0 08bf bac8 82be c5f2 eb3c 9d6c acbe
000000e0: 84e3 d5be 975e 92bd 08b5 81bd 0fd7 163f
000000f0: 19bc bbbc 4800 f6be 9c49 99bd ed9a cabe
00000100: a629 a23d fce3 833c a69b 9fbe 757a 05be
00000110: f269 0b3e 8b8d 3bbe 1878 ecbd 1b50 afbb
00000120: 3994 b6be 4358 cebe 468f 2dbe d561 9d3e
00000130: c4c7 ddbd 4c0c 78be 4793 a0bd dd52 50be
00000140: 0626 a73e 0488 a0bc f0a3 613e ee28 f7bd
00000150: 3541 eabe 6829 f9bd 7869 f3bc d857 0cbd
00000160: 9be3 e73b a5d4 5cbe 7062 54be 3c55 66be
00000170: 055c fd3d 02c1 53be 4493 4a3d bba0 a9be
00000180: 0cce bfbd 242f 31be f225 02bf 096f 86be
00000190: c7b6 b3be 27bc e2bd d678 d53d 6a3f c3bd
000001a0: 1696 d33d bfb8 83be 2ed9 95be a81d a3be
000001b0: 092e 1b3c 574a 0dbd 81ea afbe 9dca b03d
000001c0: bccd 823d c349 42be 0765 63be a017 8cbe
000001d0: 60f6 89be e9ee ddbe ad76 d5bd 6b46 dfbe
000001e0: 15d6 aabd f2c8 ce3c bec8 c6be 8eaa e03d
000001f0: 9cca 103b 84bc 13bf b90a 3fbe 93a5 fabd
00000200: f67a 89be 07ce 31bc b94a 6d3d 7878 67be
00000210: a8f7 3ebe 6f32 3f3c 256a 943e 62a2 593e
00000220: e20a 49be b5f1 1e3e e531 bfbe d093 a23e
00000230: aecd 45bf 8d6f fc3d 9343 b3bd 41ab 19bf
00000240: 5bd2 9dbd 8773 98be a905 92be 2b35 0d3e
00000250: 6144 7a3c 8b78 96be 00c7 55be 0f72 6dbe
00000260: a70f 8bbe 5c14 0bbd fa13 8a3d 4289 2e3d
00000270: 3e72 423d bd15 2b3e 8d53 4c3d ec07 27bd
00000280: acbf 1b3e f087 bebe 8b74 4b3e 39e5 7fbe
00000290: 92d7 22be 1b66 6a3d bbc1 eebd 0d39 1a3e
000002a0: ea22 9bbe c22d e23c c1ac 943e 1979 ce3d
000002b0: c534 863d 321b 213e 2e7c 51bd 8bb3 b73d
000002c0: eb29 f63d 3cf5 103b 6657 263e a0d2 e43c
000002d0: 85e0 5fbe eb35 513e 0503 68be 5cc9 803d
000002e0: f2f5 d93d 53fe 063e 3194 a7bd c2b4 c73c
000002f0: b50c 053f 8d3c 90be cefb d5bd 7231 61be
00000300: 35ba 57bd c996 16be bb78 223e 554d 463e
00000310: 95ab 103e 1688 a8bb 9baa a2be 8c42 99be
00000320: d4dd 393e 61cc c63d 87aa 173e a00b 173e
00000330: ca25 0e3d 40ba 88be 022e 00bd b1af 11be
00000340: 7af3 65be e620 b5bc 23f2 943e 8b77 a13e
00000350: e774 13be f2e7 573d 22bb 073d 6898 443e
00000360: 46b3 733e 6cb5 e93c a53b 98bd 0006 29bf
00000370: 191b 353e 6dc2 b8be e921 74bd d6c7 323e
00000380: 2ea6 8abe c5ee 733d ed46 f3bd 4bb0 f1bd
00000390: abd8 27be 4742 743e 9e74 173f e8c0 b4bd
000003a0: c28d 53be d7dd bebe 8fe2 8dbe d827 62be
000003b0: 95d5 a5bc cc4f 8d3e b121 b7be f7af 25bc
000003c0: f4e2 d8be 3cb4 13bd 649f c3bd ec3a 5d3c
000003d0: 6923 6b3e 7801 a5be c364 573d b375 0bbf
000003e0: e64a 083e 8b26 b8bd f22a babe 8d58 213f
000003f0: 299a 473d e9a1 b6bd 35cd 81be a4df 85be
-0.46972707 -0.20519534 -0.26955044 0.099325694 -0.20656095 0.23967288 -0.29299465 -0.3506455
-0.2298706 -0.35222483 -0.37176222 -0.23339956 -0.5749659 0.28237474 0.29040062 -0.42699444
-0.33760768 -0.38166752 -0.25641423 -0.29747137 -0.21916571 -0.0043448447 -0.15345685 -0.25502646
-0.2905991 0.44484082 -0.05971936 -0.3385958 -0.35909757 -0.33025163 -0.22645336 -0.091265015
0.053772025 0.39242768 0.015962033 -0.06277116 -0.21608657 -0.079991505 -0.3773503 -0.34329414
-0.19879575 -0.27975467 0.09152617 -0.23133357 0.1310801 -0.23001501 -0.290335 0.13000314
-0.2545109 -0.21414515 -0.05089355 -0.2799187 -0.534186 -0.25543767 0.028802285 -0.33676615
-0.41775143 -0.07146948 -0.06333357 0.58921903 -0.02291684 -0.4804709 -0.07484743 -0.39571324
0.079181 0.016099922 -0.31173438 -0.13034995 0.13614634 -0.18315713 -0.115463436 -0.0053501255
-0.3565996 -0.40301713 -0.16949186 0.30738702 -0.10829118 -0.24223441 -0.07840591 -0.2034411
0.32646197 -0.019596107 0.22035193 -0.120683536 -0.45752874 -0.12166101 -0.029713377 -0.03426346
0.0070766932 -0.21565492 -0.20740676 -0.22493452 0.12371067 -0.20679095 0.04945685 -0.3313044
-0.09365472 -0.17303139 -0.5083915 -0.26256588 -0.35100386 -0.110710435 0.10423438 -0.0953358
0.10331361 -0.25726888 -0.29267257 -0.31858563 0.009471425 -0.034494724 -0.343586 0.086323954
0.06386897 -0.1897345 -0.22206508 -0.27361774 -0.26945782 -0.43346336 -0.10423026 -0.43608412
-0.08341614 0.025242303 -0.3882503 0.10970031 0.002209342 -0.57709527 -0.18656434 -0.12238612
-0.26851624 -0.010852343 0.05793259 -0.22604549 -0.18649161 0.011669739 0.28987232 0.2125335
-0.19633058 0.15521891 -0.37342754 0.31753397 -0.7726697 0.12325964 -0.08753123 -0.6002694
-0.07706138 -0.2977564 -0.28519943 0.13789813 0.015275092 -0.29388842 -0.20876694 -0.23188041
-0.2716038 -0.033954963 0.067420915 0.042611368 0.04747223 0.16707511 0.049884368 -0.04077904
0.15209836 -0.37213087 0.19868676 -0.24989785 -0.15902546 0.05722628 -0.11658045 0.15060826
-0.30300075 0.02760971 0.2903805 0.10081691 0.06553034 0.1573303 -0.051143818 0.08969792
0.12019714 0.0022118827 0.16244277 0.027932465 -0.21862991 0.20430724 -0.22657402 0.06288406
0.106426135 0.13182954 -0.08182562 0.024378184 0.51972514 -0.28171197 -0.104484186 -0.21991518
-0.052667815 -0.14705957 0.15866368 0.19365437 0.14127953 -0.005143176 -0.31770787 -0.29933584
0.18151027 0.09706951 0.14811145 0.14750528 0.034704007 -0.26704597 -0.031293876 -0.14227177
-0.2245616 -0.022110414 0.29090986 0.31536517 -0.14400063 0.052711435 0.033137448 0.19198763
0.23798856 0.028528892 -0.07433251 -0.6602478 0.17686118 -0.36085835 -0.05960265 0.17459044
-0.2707991 0.05955388 -0.118787624 -0.11801203 -0.16391246 0.23853408 0.5916232 -0.088258564
-0.20659545 -0.37278625 -0.27711913 -0.22085512 -0.020243445 0.27599943 -0.35767892 -0.010112754
-0.42360651 -0.036060557 -0.09551886 0.013502818 0.22962727 -0.32227683 0.05258633 -0.5447647
0.13309821 -0.089917265 -0.3636089 0.6302574 0.048731003 -0.08917601 -0.25351873 -0.26147187

fc.weight f4 [35, 128]
00000000: 0fbf b53f 1a3b 44c0 0ffd d4be 5e23 eb3e
00000010: 7f75 c7be 1863 f63f 59ce 223f 9a53 0340
00000020: 5b8a 133f 1aa3 a6bf e2b5 3f40 351a debf
00000030: b4d8 10bf 9ea7 65bf c59b 823f cdc5 293f
00000040: f661 253f 3701 49bd 3c35 fcbc afd2 a4bf
00000050: 8356 d73f d0cb c640 283e d73e 4318 0b3f
00000060: 7f01 9e3d 3e7f ccbe 614d 5540 5a09 6b3f
00000070: b794 cebf c7b5 ff3e a796 bc3e 9613 1d3e
00000080: e618 9cbf 86a0 fd3f 3b9a 3340 c6bd 32bf
00000090: a4e6 d0be 3db3 8a3e b523 523f 96fd 943f
000000a0: 37a9 d63e 5b3a 6dbf 063b f1be ae18 0bc0
000000b0: fde3 253e f0b4 47be 5e74 1ebf 2303 983f
000000c0: 7ddf 853f b181 d53e e5ef 47bf 4b68 5c3f
000000d0: ec14 b23e bf26 163f a455 ad40 875a 05bf
000000e0: 282f f43f c2eb fb3e fd50 22bf 60d1 23be
000000f0: 798a c13f f0de 683f 41ac 92bf 4446 223e
00000100: d62a 83c0 020d 4abf 1e47 f3bf e439 65bf
00000110: 2aa4 0840 ebe3 f4be e67e 363e fe8b 50bf
00000120: d0ce c2be 4867 80bf 19c5 0ebf 1894 853f
00000130: 2a12 dd3c fd28 24bf 8541 6fbf 0cb1 95bd
00000140: f8e7 913f 8c8c 31bf fa79 00c0 d92f fa3e
00000150: 2bc3 00bf 516a b23d c098 cb3f bd0c 4abe
00000160: 05bb 4c3d 36af f5bf c1ec f03f a02e c03f
00000170: c9da 06be 50c2 af3f 979b adbe 0305 5e3e
00000180: e6bc eb3e a580 f5bf ab02 36bf 3738 493f
00000190: d9be b73f 280c ccbd 58cb 8dbf 8908 d53e
000001a0: 67bb f8bf ab64 923f b54b 5f3f 0cec b0be
000001b0: 885c d63e bb0a de3f 8848 b13e 330b 373e
000001c0: a9de 8bbf e348 12c0 74d0 71bf abb0 9dbf
000001d0: 85a1 2d3f 3b71 693e 1b2e 7abf a956 b7bf
000001e0: 988e 73bf 0932 863f 51df 073f 94de ee3e
000001f0: 291c 88bf 024f 99bf 282c 02be b900 b03e
00000200: 3543 38bf 8d5b ad3f 29ca 2e3f 61e0 123f
00000210: 30cc 2abf d5b7 863f f0bc 6abf 3f4a bbbf
00000220: f2bd 74bf 6721 dcbe 36f7 25bf 4f54 a93d
00000230: 33d8 77bf 07f7 0641 8dbc a7be d7dc 223e
00000240: 1dab 4e3f bb6c 603d a811 27c0 9371 193f
00000250: 515e e6be abed c1bd 5207 3dbf 7cc3 51bf
00000260: 06e9 0c3f 31fd 7fbd d292 5abd 92a9 35bf
00000270: 4f78 8cbd f124 b03f 0b24 013f f0c0 1ac0
00000280: 36d4 ffbe 756a 96bf 3091 b4be 2813 803f
00000290: cda0 0ec0 8069 c4bf 1aee b93f 0efa 143f
000002a0: 7861 313f dddc 4240 ff7d 323f 0296 e13d
000002b0: a8f7 73bf 248d 49bf 254a 12bf 4aa7 6bbf
000002c0: c1e8 543f ddd0 25bf 819b e1be fc52 933f
000002d0: 905e 243f d25e 69bf 8ec1 e83e d0c7 f1be
000002e0: da18 e73f c51a 233c 173a f93e 64b3 d1c0
000002f0: 69d9 40c0 884c 6fbe 2462 0040 5d46 463f
00000300: 7c48 06c0 0560 84c0 3d0c 08c0 1921 30bf
00000310: d938 48bf b6fc 443f de87 c33d dbd7 9dbe
00000320: 9728 97bf 2f62 30bf 7105 79bf b34e 393f
00000330: 0d3e c1bf 92fb f0bf 92f9 473e 5498 d1be
00000340: ac05 433f 87f0 96be 2593 64c0 6f90 71bf
00000350: 43ac a4bf aa05 833e 25d0 25be b314 f43f
00000360: 0155 8abe da86 c6be 31e7 61bf 59f0 f3be
00000370: e99d 85be 1cac b4bf de88 483f 5caa 2bbe
00000380: a18c ba3f 5f99 13be 6240 c73e 7feb 75bf
00000390: c3f6 2f3e 789d 8e3f a1f4 de3b da25 aa3f
000003a0: 0bcf 91bf 5ada adbf 6a27 fabd 1ff0 fdbe
000003b0: 046f b5be b4e7 90bf 70f8 bdbf f0dd 113f
000003c0: 2d50 24bf 5804 373e 1fd8 34bf b946 d83d
000003d0: 12da c2bd 4140 cdbf 4eb0 6c3e 636c ac3e
000003e0: 3761 1cbf 6f69 70bf 0609 6abf e3ad 17bf
000003f0: dc30 eabe e952 84bd a5dd a93f 057f 4e3d
1.4198931 -3.0661073 -0.41599318 0.4592542 -0.3895683 1.9248991 0.6359611 2.0519776
0.5763299 -1.3018525 2.9954762 -1.7351748 -0.5658066 -0.8970889 1.0203787 0.66317445
0.646026 -0.049073424 -0.030787103 -1.2876796 1.6823276 6.2123795 0.4203961 0.54333895
0.07715129 -0.39940828 3.3328478 0.91811144 -1.6139134 0.49943373 0.3683369 0.15339503
-1.2195098 1.9814613 2.8062885 -0.6982082 -0.40800965 0.27089873 0.82085735 1.1639888
0.41925976 -0.9266717 -0.47115344 -2.1733813 0.16200252 -0.19502616 -0.6189631 1.1875957
1.0458828 0.4170051 -0.78100425 0.8609664 0.34781587 0.5865287 5.416704 -0.5209126
1.9076891 0.49203306 -0.6340483 -0.15997839 1.5120384 0.90965176 -1.1458818 0.15847117
-4.098979 -0.789261 -1.9006078 -0.8954146 2.1350198 -0.47830138 0.17821845 -0.8146361
-0.3804841 -1.0031519 -0.557695 1.043582 0.0269862 -0.64125043 -0.9345935 -0.0730916
1.1398916 -0.6935508 -2.0074449 0.4886463 -0.502978 0.087116845 1.5905991 -0.19731422
0.049983043 -1.9194095 1.8822252 1.5014229 -0.13169397 1.3731174 -0.33907768 0.216816
0.46042556 -1.9179884 -0.7109782 0.786014 1.4355117 -0.09963256 -1.107768 0.41608074
-1.9432191 1.1436971 0.87224895 -0.3455509 0.4186747 1.7347025 0.3462565 0.17875366
-1.0927325 -2.2856987 -0.944587 -1.231954 0.67824584 0.227971 -0.977266 -1.4323322
-0.95139456 1.048402 0.5307513 0.4665419 -1.0633594 -1.1977236 -0.12712157 0.3437555
-0.7197755 1.3543564 0.6827722 0.57373625 -0.66717815 1.0524851 -0.91694546 -1.4632033
-0.95602334 -0.42994234 -0.6483034 0.08268034 -0.9681427 8.435309 -0.3276104 0.15904556
0.8072985 0.054791193 -2.6104527 0.59938926 -0.44993833 -0.0946916 -0.73839295 -0.8193891
0.55043066 -0.06249732 -0.053362675 -0.7096187 -0.068588845 1.3761274 0.5044562 -2.418026
-0.49966592 -1.1751238 -0.3526702 1.0005846 -2.2285645 -1.5344696 1.4525788 0.58194053
0.6928935 3.0447304 0.69723505 0.1101494 -0.9529977 -0.7873099 -0.57144386 -0.9205214
0.83167654 -0.64771825 -0.44063953 1.15097 0.6420679 -0.9116031 0.4546017 -0.47222757
1.8054459 0.009955113 0.48677132 -6.5531483 -3.0132697 -0.23369038 2.00599 0.77451116
-2.098174 -4.136721 -2.125747 -0.68800503 -0.7821174 0.76948106 0.09547399 -0.30828747
-1.1809262 -0.68899816 -0.9727393 0.7238571 -1.5097061 -1.8826773 0.19528797 -0.4093653
0.7618053 -0.29480383 -3.571481 -0.94361013 -1.286507 0.2559026 -0.16192682 1.9068817
-0.27017978 -0.3877476 -0.88243395 -0.47644308 -0.26097038 -1.4115024 0.7833384 -0.16764206
1.4574167 -0.14413975 0.38916308 -0.96062464 0.17183976 1.1141806 0.0068040644 1.3292801
-1.139131 -1.3582261 -0.12214549 -0.4959726 -0.3543626 -1.132071 -1.4841442 0.56979275
-0.6418484 0.17872751 -0.70642275 0.10560364 -0.0951425 -1.6035234 0.2311413 0.33676443
-0.6108584 -0.9391088 -0.9142002 -0.59249705 -0.45740402 -0.06461126 1.3270766 0.050414104

fc.bias f4 [35]
00000000: 7034 0ebf 8bf3 c93e af17 93be 105a 493f
00000010: 886b 953e e81b 9d3e 9833 293e 17dd 9a3e
00000020: c9aa 623e 954b c4be 8cd1 7c3a c041 93bc
00000030: d0fd fdbd a2d3 79bf 366f b3bd 263d e9bd
00000040: 9280 d8be 7a4d d5bd 97c1 2c3f 217f 80bd
00000050: 26a5 d2be 5b74 16be b783 16bf 378b 69be
00000060: 26dd 6dbe 5dbf 6b3f 8a0d 07bf 057f 90be
00000070: 5102 f9be 54e4 fcbe 41b4 f9bd 87c6 96be
00000080: d78b 343f 34ea a1be 03a7 393e
-0.55548763 0.3944362 -0.28729007 0.7865305 0.29183602 0.30685353 0.16523588 0.30246803
0.22135462 -0.38338915 0.0009644262 -0.017975688 -0.124019265 -0.9758855 -0.08761446 -0.11388616
-0.4228559 -0.10415168 0.67482895 -0.06274248 -0.41141623 -0.14692824 -0.5879473 -0.22807012
-0.23228893 0.9208887 -0.52755034 -0.28221908 -0.4863458 -0.4939295 -0.12192584 -0.2944834
0.7052588 -0.31623995 0.18130116
